LSTM/model_params.pkl (torch, 21911 bytes, 5 tensors)

lstm.weight_ih_l0 f4 [128, 5]
0.113739565 0.23651364 -0.018617814 0.00989322 -0.05604083 -0.012170048 -0.017548671 -0.18282767
-0.16031002 -0.123278484 0.0042661196 -0.16228765 0.04010025 -0.20930211 0.006564318 0.09858015
-0.04379455 -0.0016986041 0.27936712 0.15749593 0.18886447 0.19709612 0.09408499 0.19439438
0.114204906 -0.16827339 -0.23860553 -0.15636887 0.039112758 -0.26584724 -0.22366787 -0.09677273
-0.2750441 -0.1274554 -0.05234269 0.044157505 -0.037154198 0.26745504 0.018998897 -0.046847045
-0.009999636 -0.29445374 -0.24492745 -0.058015686 -0.20038064 -0.049060576 -0.27393332 -0.15955275
-0.1589732 -0.17627214 0.07032218 0.06551618 -0.10762412 -0.0207363 -0.15570168 -0.15503675
0.06336532 0.083234824 -0.00036398962 -0.00671804 0.013346327 0.2044593 0.019385576 0.22065458
-0.008253944 -0.055713233 0.005105783 -0.15055852 -0.14800929 -0.15093832 -0.22921848 -0.14592622
-0.049441792 -0.05551045 0.093157075 0.122556046 0.054656852 0.0056679733 0.06846996 0.07241463
-0.21991827 -0.01618253 -0.14613427 -0.056719217 0.020030366 -0.029631032 -0.03518656 0.057524506
-0.045953106 -0.06770691 -0.17640668 0.047607135 0.015825372 -0.13615656 0.04348711 0.082213335
0.1325704 0.039052676 0.07171021 0.27709174 0.1459522 -0.089523226 0.014856239 -0.040984303
0.11306162 -0.007391494 -0.12729663 -0.016502418 -0.18807022 -0.11285471 -0.021724313 0.009230248
-0.13641514 0.027775766 0.14326517 0.2576226 -0.016845316 0.17366768 0.24869685 0.25074285
-0.07222149 -0.08098505 -0.0037680985 -0.2005782 0.052156355 -0.14929609 -0.1387948 -0.114063494
-0.15058465 -0.08794868 0.18111825 0.13211131 0.26408097 -0.0060359235 0.1497907 0.022192953
-0.055340145 -0.22275178 0.004357019 -0.0040967064 -0.110972516 -0.32253125 -0.20218743 -0.33988053
-0.37016475 -0.070569016 -0.120256014 0.017351167 0.04426625 0.069126956 0.21631898 0.2811641
0.020855589 0.048289567 0.30045575 -0.0069496483 -0.19690436 0.07558438 0.09572929 0.054986462
-0.02071947 0.21237043 0.14180101 0.021831838 0.2252696 -0.15047365 -0.12651771 -0.24593905
-0.20212254 -0.21618511 -0.0022792397 0.06325999 0.05583436 -0.20107132 0.07342503 0.12306843
0.06117212 0.22798426 0.0013916931 0.1807309 0.22426663 0.18366584 0.12799078 -0.03619235
-0.04742388 0.043653715 -0.040067542 -0.1858584 -0.19833274 0.0045414804 -0.050687037 -0.3018735
-0.22560625 -0.23500831 -0.15082306 -0.07261778 0.1755868 0.17196663 0.14850989 -0.061029933
-0.27269495 -0.26243904 -0.22032025 0.027620079 -0.26775154 -0.16155258 -0.06715501 -0.08710799
-0.03567411 -0.13123596 -0.09960626 -0.17022605 -0.097487845 -0.16850282 -0.06871274 -0.07154633
-0.046871107 -0.03785941 -0.05119018 -0.17026272 -0.107237056 0.10098023 0.16305713 0.14966163
0.04597983 -0.0027633696 -0.11550495 -0.030270504 -0.20815773 -0.043313876 -0.030192038 0.00075504184
-0.096449696 -0.032775085 -0.101382665 0.013851823 -0.23787996 -0.2339781 -0.13663909 0.0015202682
-0.22120832 0.02488734 -0.20006104 0.0011940246 -0.09717264 -0.11215334 0.16766617 0.17168967
0.12403231 -0.10260938 -0.010979772 0.055902354 -0.24224566 -0.04487361 -0.031198682 0.040260296
00000000: 4af0 e83d a230 723e 6384 98bc 2c17 223c
00000010: 128b 65bd e264 47bc 3bc2 8fbc 2d37 3bbe
00000020: 4f28 24be 6e79 fcbd ceca 8b3b bc2e 26be
00000030: 2940 243d 4b53 56be 7e19 d73b 64e4 c93d
00000040: ea61 33bd b2a3 deba 3509 8f3e 9d46 213e
00000050: b065 413e 91d3 493e a2af c03d 520f 473e
00000060: 43e4 e93d dc4f 2cbe 0255 74be 291f 20be
00000070: b334 203d 211d 88be 3109 65be c830 c6bd
00000080: 95d2 8cbe ab83 02be 4a65 56bd 80de 343d
00000090: 002f 18bd deef 883e 93a3 9b3c b0e2 3fbd
000000a0: 83d5 23bc a4c2 96be 43ce 7abe dba1 6dbd
000000b0: 9530 4dbe bef3 48bd fd40 8cbe cc61 23be
000000c0: dfc9 22be af80 34be 1305 903d 592d 863d
000000d0: 096a dcbd 2cdf a9bc 4370 1fbe f4c1 1ebe
000000e0: adc5 813d 0577 aa3d dcd5 beb9 0123 dcbb
000000f0: 8daa 5a3c c75d 513e 80ce 9e3c 46f3 613e
00000100: 8d3b 07bc 8f33 64bd 6a4e a73b 032c 1abe
00000110: bf8f 17be 938f 1abe 40b8 6abe af6d 15be
00000120: 7a83 4abd ed5e 63bd 23c9 be3d aafe fa3d
00000130: dddf 5f3d 68ba b93b fa39 8c3d 1f4e 943d
00000140: 4132 61be 3a91 84bc 39a4 15be 6952 68bd
00000150: b916 a43c c7bc f2bc c81f 10bd d19e 6b3d
00000160: 5339 3cbd eca9 8abd f4a3 34be b3ff 423d
00000170: 36a4 813c a06c 0bbe 8a1f 323d 775f a83d
00000180: 89c0 073e b3f5 1f3d cddc 923d f8de 8d3e
00000190: 7e74 153e f457 b7bd 9567 733c 28df 27bd
000001a0: da8c e73d 5834 f2bb 0c5a 02be 1430 87bc
000001b0: 7b95 40be 5f20 e7bd 30f7 b1bc 773a 173c
000001c0: 69b0 0bbe 018a e33c 1bb4 123e 1ce7 833e
000001d0: 30ff 89bc f1d5 313e 63aa 7e3e 5e61 803e
000001e0: dce8 93bd 7ddb a5bd 34f2 76bb 5f64 4dbe
000001f0: e7a1 553d 13e1 18be 3920 0ebe 1f9a e9bd
00000200: dd32 1abe 701e b4bd 1077 393e 3048 073e
00000210: 9f35 873e ffc8 c5bb bc62 193e ffcd b53c
00000220: 59ac 62bd 0b19 64be 53c5 8e3b aa3d 86bb
00000230: 8f45 e3bd d122 a5be 390a 4fbe d204 aebe
00000240: 3c86 bdbe 7d86 90bd c948 f6bd 0924 8e3c
00000250: 8750 353d 6f92 8d3d b982 5d3e bef4 8f3e
00000260: 57d9 aa3c 48cb 453d 56d5 993e e0b9 e3bb
00000270: 4ca1 49be fccb 9a3d b80d c43d 7c39 613d
00000280: e1bb a9bc a277 593e 4934 113e afd8 b23c
00000290: 13ad 663e c415 1abe dc8d 01be 72d7 7bbe
000002a0: 36f9 4ebe a15f 5dbe 4c5f 15bb 748e 813d
000002b0: 92b2 643d a4e5 4dbe dd5f 963d 4d0b fc3d
000002c0: 9e8f 7a3d b574 693e 7969 b63a 8511 393e
000002d0: 27a6 653e e612 3c3e 0410 033e 6e3e 14bd
000002e0: 8b3f 42bd 3dce 323d dd1d 24bd aa51 3ebe
000002f0: bd17 4bbe b3d0 943b 369d 4fbd 2a8f 9abe
00000300: 5305 67be 05a6 70be 5c71 1abe a1b8 94bd
00000310: 07cd 333e 0518 303e fa12 183e 86fa 79bd
00000320: ac9e 8bbe 695e 86be a29b 61be 8143 e23c
00000330: bb16 89be 0a6e 25be 9188 89bd ad65 b2bd
00000340: 041f 12bd b862 06be 5efe cbbd bd4f 2ebe
00000350: b5a7 c7bd 018c 2cbe 44b9 8cbd e286 92bd
00000360: ebfb 3fbd 7812 1bbd cbac 51bd 5a59 2ebe
00000370: 1a9f dbbd b9ce ce3d 73f8 263e e640 193e
00000380: 5955 3c3d a619 35bb dc8d ecbd d9f9 f7bc
00000390: 4d27 55be e469 31bd 4b55 f7bc 00ee 453a
000003a0: 6b87 c5bd 2b3f 06bd b7a1 cfbd c2f2 623c
000003b0: ce96 73be f497 6fbe 1eeb 0bbe bc43 c73a
000003c0: 6f84 62be 89e0 cb3c cddc 4cbe d180 9c3a
000003d0: 7302 c7bd a6b0 e5bd aeb0 2b3e 6bcf 2f3e
000003e0: a704 fe3d de24 d2bd 80e4 33bc def9 643d
000003f0: 3f0f 78be 64cd 37bd 6194 ffbc fbe7 243d

lstm.weight_hh_l0 f4 [128, 32]
0.13334313 0.22847326 -0.040146165 0.15764636 -0.12618543 -0.027430799 0.12888867 -0.09366389
-0.12772225 -0.14759074 0.01371878 0.07356583 -0.14445528 0.020502692 -0.120723665 0.14752497
-0.13779648 -0.05724254 0.18660073 -0.085394435 0.029985964 0.18901643 -0.11172138 -0.16110665
-0.06452363 0.014291165 0.084911466 0.11184417 -0.055070296 -0.25912842 -0.33758277 -0.16109973
0.24942666 -0.0637646 -0.09381798 0.028130395 0.3261968 0.18024288 0.080677606 0.09770453
-0.10457582 -0.029237423 0.103987575 0.07501075 -0.0018525963 0.12039798 0.18145701 -0.23360841
0.23629566 -0.17427903 -0.1095971 -0.008855764 0.009887207 0.06343054 -0.15776083 -0.058322024
-0.20574178 -0.12149059 0.12001378 0.036418278 0.2079602 0.10793431 -0.01673037 0.026586764
-0.0950325 -0.02712574 -0.00078734197 -0.22336736 0.020169895 0.223191 -0.20229214 0.03393148
-0.009348106 -0.13551535 0.047303025 0.12502183 0.10081566 -0.030582234 -0.05026796 0.04114681
-0.0017389756 -0.00211767 -0.2683975 0.038922697 0.015090827 -0.23571284 -0.15006892 -0.018171942
-0.17794928 -0.07412116 0.12510571 -0.051974673 0.21376084 0.059992578 0.018088583 -0.060239296
-0.012120619 -0.005072508 -0.054482367 -0.11570869 0.02049029 -0.17605528 0.101700254 -0.09458142
0.03421988 -0.14258951 0.07850551 0.12994465 0.08664733 0.054464836 0.15190218 0.063325666
-0.09221405 0.0786043 0.04796654 -0.0922526 0.0927949 0.012463289 0.13597864 -0.17524774
0.07460741 0.09990945 -0.02353028 0.1645947 0.1986769 -0.2292116 -0.15737581 0.10861007
0.0027927244 0.2911827 0.14525887 0.031703267 -0.05316664 -0.04967667 -0.065558344 -0.032114133
-0.1715424 0.06540161 0.119412534 -0.1624015 0.050025698 0.05426735 0.109766975 -0.10694109
0.08454952 0.008211177 0.17307803 0.009172453 0.1153686 0.005051502 0.013407861 0.062428992
-0.064323194 0.08031272 -0.027271 0.2570819 -0.058754493 -0.17885667 0.027763717 -0.07033007
-0.0031826668 -0.12152321 0.110739686 -0.032528467 -0.03194808 -0.06667691 -0.1411631 0.19733347
-0.12737504 -0.032038633 -0.09350167 0.22292103 0.25752977 -0.1619617 0.100606315 -0.19604445
-0.07097159 -0.21996607 0.17309925 0.01051247 -0.05703843 0.01210935 -0.06717083 0.04774635
0.030674664 0.06723865 0.09064079 0.1589555 -0.008350214 0.124542736 0.106466174 0.117209494
0.13160583 -0.08770576 -0.19514707 0.05708096 0.06077769 0.08160372 -0.18584393 -0.09779194
-0.123175204 -0.018509569 0.13039571 0.10047559 0.2608908 -0.06549474 0.015568529 -0.30642053
0.13404945 -0.1686214 0.06153211 0.07285792 -0.1899881 -0.043083638 -0.015969986 0.23784024
-0.070421256 -0.06999331 0.11849777 -0.123219825 0.11903843 0.21677831 0.24757779 -0.23487245
-0.11853226 0.2795381 0.2253565 -0.13830987 -0.10089055 -0.15918036 0.21040852 -0.11552923
-0.15025169 -0.09295977 0.21631978 0.023020776 -0.08227357 0.09897592 -0.01488247 -0.011366227
-0.053621095 -0.13020557 0.21908782 -0.038261652 0.039162174 0.114263035 -0.03875066 -0.007255217
0.21031536 0.10829152 -0.092223 0.09041237 0.07330537 -0.025039462 -0.22346461 -0.03738908
00000000: 1a8b 083e e5f4 693e 4e70 24bd 0c6e 213e
00000010: c136 01be 8eb6 e0bc 64fb 033e dbd2 bfbd
00000020: 9fc9 02be 0722 17be bcc4 603c afa9 963d
00000030: 16ec 13be 43f5 a73c f83d f7bd c910 173e
00000040: 851a 0dbe 2777 6abd 4314 3f3e 47e3 aebd
00000050: 20a5 f53c 868d 413e 2ece e4bd 24f9 24be
00000060: f724 84bd 7e25 6a3c 10e6 ad3d 8e0e e53d
00000070: 6491 61bd 7bac 84be a6d7 acbe 54f7 24be
00000080: b469 7f3e 0497 82bd a423 c0bd b771 e63c
00000090: 4403 a73e 9791 383e 4d3a a53d 5019 c83d
000000a0: d92b d6bd 5283 efbc 70f7 d43d 3c9f 993d
000000b0: d1d2 f2ba 3793 f63d decf 393e 0b37 6fbe
000000c0: 7df7 713e 3476 32be 7274 e0bd c417 11bc
000000d0: f4fd 213c dfe7 813d 0e8c 21be 13e3 6ebd
000000e0: f9ad 52be 0fd0 f8bd c9c9 f53d 552b 153d
000000f0: 85f3 543e aa0c dd3d 210e 89bc 7ccc d93c
00000100: 66a0 c2bd cd36 debc a065 4eba 6aba 64be
00000110: 563b a53c 2e8c 643e ac25 4fbe bcfb 0a3d
00000120: cc28 19bc 89c4 0abe d1c0 413d b905 003e
00000130: 7178 ce3d 9887 fabc c7e5 4dbd 8f89 283d
00000140: 57ee e3ba 9bc8 0abb 666b 89be 686d 1f3d
00000150: 843f 773c b55e 71be abab 19be 53dd 94bc
00000160: 5638 36be d6cc 97bd b61b 003e 65e3 54bd
00000170: 1fe4 5a3e c7ba 753d 822e 943c 7bbd 76bd
00000180: 9095 46bc 4837 a6bb e728 5fbd adf8 ecbd
00000190: 41db a73c d647 34be 3948 d03d e7b3 c1bd
000001a0: 252a 0c3d fc02 12be 7fc7 a03d 3610 053e
000001b0: 2874 b13d 8516 5f3d 3f8c 1b3e e3b0 813d
000001c0: b8da bcbd 4bfb a03d 9078 443d eeee bcbd
000001d0: 410b be3d d332 4c3c fc3d 0b3e 2574 33be
000001e0: c5cb 983d 539d cc3d 93c2 c0bc 838b 283e
000001f0: f571 4b3e 72b6 6abe 2027 21be f56e de3d
00000200: 2406 373b e615 953e bebe 143e 49db 013d
00000210: 43c5 59bd c479 4bbd 7443 86bd 1c8a 03bd
00000220: d0a8 2fbe 48f1 853d 8f8e f43d 944c 26be
00000230: bfe7 4c3d 7147 5e3d 82cd e03d ee03 dbbd
00000240: 4c28 ad3d 2c88 063c 5e3b 313e 0e48 163c
00000250: 5f46 ec3d 1287 a53b a5ac 5b3c 8bb5 7f3d
00000260: e1bb 83bd ff7a a43d 6f67 dfbc 3da0 833e
00000270: 8da8 70bd 3426 37be bc70 e33c 3609 90bd
00000280: 4a94 50bb 29e1 f8bd 7dcb e23d 923c 05bd
00000290: fddb 02bd e78d 88bd 0f8d 10be c911 4a3e
000002a0: 9a6e 02be f13a 03bd ce7d bfbd 6945 643e
000002b0: f1da 833e 4ad9 25be af0a ce3d e0bf 48be
000002c0: 8e59 91bd c93e 61be ee40 313e 7f3c 2c3c
000002d0: 21a1 69bd 4c66 463c dc90 89bd ad91 433d
000002e0: 6f49 fb3c 6bb4 893d e1a1 b93d 3bc5 223e
000002f0: 56cf 08bc 4310 ff3d f00a da3d 880b f03d
00000300: aec3 063e 149f b3bd a2d4 47be bacd 693d
00000310: 07f2 783d da1f a73d df4d 3ebe 2447 c8bd
00000320: 4843 fcbd 61a1 97bc 7486 053e 25c6 cd3d
00000330: 7b93 853e 1b22 86bd 2513 7f3c 27e3 9cbe
00000340: 4244 093e 17ab 2cbe 1809 7c3d 8836 953d
00000350: 3e8c 42be 7878 30bd 7dd3 82bc 648c 733e
00000360: 0539 90bd a758 8fbd f5ae f23d ad5a fcbd
00000370: 6cca f33d 22fb 5d3e 0885 7d3e 6782 70be
00000380: 0bc1 f2bd 9e1f 8f3e dbc3 663e 1aa1 0dbe
00000390: b49f cebd 2d00 23be 5575 573e 979a ecbd
000003a0: 94db 19be b161 bebd ef82 5d3e 1196 bc3c
000003b0: 0c7f a8bd e3b3 ca3d 9ad5 73bc 6939 3abc
000003c0: cba1 5bbd 9c54 05be 8f58 603e 40b8 1cbd
000003d0: 8468 203d bd02 ea3d 03b9 1ebd 2cbd edbb
000003e0: e95c 573e f2c7 dd3d 6adf bcbd 1f2a b93d
000003f0: 2021 963d 8f1f cdbc e8d3 64be 4b25 19bd

lstm.bias_ih_l0 f4 [128]
0.0476548 -0.052442435 0.05317232 0.056009993 0.059848968 -0.005869787 -0.21601431 -0.13947333
-0.015595284 -0.17238778 -0.03760775 0.0002224594 0.0738032 0.1188643 0.09846296 0.13641025
-0.044673894 -0.043977864 -0.26111406 0.15318348 0.032372933 -0.1250255 -0.05127165 0.078697406
0.049528934 -0.20010383 -0.12141383 -0.22373277 -0.24723467 0.05977923 0.21012491 -0.020128995
0.13354123 -0.07642999 -0.04543819 0.07385909 0.15355155 -0.17593314 0.025416486 -0.049131792
-0.14294791 -0.069540285 -0.03331165 -0.24072054 -0.112246014 -0.21765076 -0.21182834 0.044685222
0.0495831 -0.17619185 -0.107263245 0.026140807 -0.0029181296 0.056982927 -0.10723517 0.15772402
0.09400871 -0.25054255 -0.027714247 -0.05458298 0.07707694 -0.14224105 0.023549305 -0.12680744
0.019430153 -0.12019845 -0.0131549705 0.056424588 -0.07023307 -0.046082806 -0.15957439 -0.063382804
0.12670249 0.104110405 0.024117388 -0.104580246 -0.0041546803 -0.044680484 -0.08930939 0.09381415
0.047979996 0.13442567 0.0017659809 0.08284441 0.028585019 -0.10156595 -0.06638728 -0.15593477
-0.107119575 -0.002273392 -0.05174994 -0.044718955 0.1086402 0.026268281 0.013472994 -0.04342858
-0.103244446 -0.013479284 -0.07617981 0.036097508 0.058225498 -0.11095164 -0.1551964 -0.01576254
-0.12370443 0.010482245 -0.1878904 -0.22054663 0.0713933 0.046844587 0.03613239 0.07088531
-0.2104599 -0.16234218 -0.21792838 0.08904343 -0.058252204 -0.20948415 0.12459138 0.18963905
-0.18956606 -0.06802798 0.17154615 0.0012391481 0.04625168 -0.17065763 0.29430732 -0.16188274
00000000: ae31 433d e1cd 56bd 38cb 593d bc6a 653d
00000010: 3124 753d 5857 c0bb db32 5dbe 19d2 0ebe
00000020: 5d83 7fbc 6c86 30be 960a 1abd fe43 6939
00000030: 2226 973d 206f f33d f3a6 c93d 21af 0b3e
00000040: f9fb 36bd 2222 34bd beb0 85be 21dc 1c3e
00000050: 7b99 043d af06 00be 3902 52bd 1b2c a13d
00000060: dade 4a3d 05e8 4cbe d0a7 f8bd 341a 65be
00000070: 162b 7dbe 11db 743d fc2a 573e 90e5 a4bc
00000080: 08bf 083e 5487 9cbd 651d 3abd 6f43 973d
00000090: 9e3c 1d3e d127 34be 3c36 d03c 6b3e 49bd
000000a0: f060 12be 236b 8ebd cc71 08bd 727f 76be
000000b0: 3de1 e5bd d7df 5ebe 87e9 58be da07 373d
000000c0: a617 4b3d a36b 34be d5ac dbbd 3f25 d63c
000000d0: 173e 3fbb ee66 693d 1d9e dbbd 6882 213e
000000e0: a387 c03d 1d47 80be fd08 e3bc 6792 5fbd
000000f0: 84da 9d3d a3a7 11be 79ea c03c cfd9 01be
00000100: fc2b 9f3c 9b2a f6bd f287 57bc 781d 673d
00000110: 5bd6 8fbd 53c1 3cbd 7867 23be d8ce 81bd
00000120: 4cbe 013e d637 d53d d491 c53c 2b2e d6bd
00000130: fc23 88bb e202 37bd d7e7 b6bd a221 c03d
00000140: ac86 443d e2a6 093e 7c78 e73a 54aa a93d
00000150: 212b ea3c cf01 d0bd 0ef6 87bd 5dad 1fbe
00000160: 8261 dbbd 30fd 14bb bff7 53bd 392b 37bd
00000170: c17e de3d 9430 d73c d5bd 5c3c 2be2 31bd
00000180: d371 d3bd 37d8 5cbc 2904 9cbd fbda 133d
00000190: dc7d 6e3d 9d3a e3bd ceeb 1ebe 7120 81bc
000001a0: c058 fdbd b9bd 2b3c 5766 40be fad6 61be
000001b0: a736 923d 1ce0 3f3d 8fff 133d 512c 913d
000001c0: cd82 57be 073d 26be 9e28 5fbe 675c b63d
000001d0: dd99 6ebd 0383 56be c429 ff3d bd30 423e
000001e0: 9b1d 42be 4152 8bbd cba9 2f3e e96a a23a
000001f0: 6772 3d3d e0c0 2ebe 73af 963e 97c4 25be

lstm.bias_hh_l0 f4 [128]
0.062423993 0.0049329554 -0.14016792 0.1605552 -0.01992518 -0.2531941 -0.19424216 -0.06609086
-0.07544075 -0.008296841 -0.187975 0.0021955776 0.070253275 0.06798754 -0.026887575 0.015142762
0.0006823271 0.021513093 0.020827468 -0.022405315 0.024928698 -0.08546793 0.03652174 0.11455298
-0.20736797 0.09043935 -0.10575918 -0.1721616 0.05936967 -0.056492206 0.082563855 0.035346203
0.049563203 -0.25444108 0.041354753 -0.16388331 -0.14059591 -0.08633574 0.006292134 -0.11767978
-0.04589939 -0.22178261 0.03989244 0.09228802 -0.00058656104 0.010395829 -0.12433927 -0.060801696
-0.049625542 -0.18137437 -0.14780533 -0.06140478 -0.17787789 -0.23763421 0.13430911 0.17078404
0.02306887 -0.068636276 0.12575054 -0.07239885 -0.20868318 -0.029600795 -0.018765548 -0.035357777
-0.07490068 0.034993045 -0.014324358 -0.011055956 0.0814239 0.21257679 -0.051356122 -0.18749031
-0.019703966 0.04558112 -0.10815329 -0.07785586 0.009995691 0.17275508 -0.039391506 -0.19182648
-0.009515135 -0.10611545 -0.1662653 0.06794559 -0.10823428 0.025257397 0.0760316 -0.17118935
0.0174766 -0.010673673 -0.045826986 -0.17665751 0.08787237 0.07579572 0.13063104 -0.012769626
0.10590586 -0.1674672 -0.17473197 0.059705164 -0.15704402 -0.24523169 0.119282894 0.075747654
-0.04765671 -0.06750902 -0.2197694 -0.014857857 -0.0042562173 -0.18005472 -0.20485479 0.056827802
0.07250952 -0.09664367 -0.016737055 0.11368129 -0.021957943 -0.17053019 -0.041027937 -0.055359013
-0.22338623 -0.105419405 0.0766257 0.09525881 -0.19909008 0.06651239 0.19445969 0.08173938
00000000: 4db0 7f3d a1a4 a13b 2e88 0fbe 9568 243e
00000010: 223a a3bc a8a2 81be 6be7 46be a55a 87bd
00000020: ae80 9abd 79ef 07bc 857c 40be aee3 0f3b
00000030: f3e0 8f3d 0d3d 8b3d 5543 dcbc 5919 783c
00000040: 32de 323a 3a3c b03c 5e9e aa3c 5a8b b7bc
00000050: 4537 cc3c cf09 afbd d297 153d c19a ea3d
00000060: 4558 54be 4438 b93d 4598 d8bd 214b 30be
00000070: 9c2d 733d 5f64 67bd 3d17 a93d 2ec7 103d
00000080: c902 4b3d 1a46 82be 9a63 293d 07d1 27be
00000090: 60f8 0fbe cbd0 b0bd 3f2e ce3b 1902 f1bd
000000a0: 0001 3cbd fb1a 63be 4166 233d 8001 bd3d
000000b0: 72c3 19ba 4453 2a3c 96a5 febd 330b 79bd
000000c0: 2744 4bbd 34ba 39be 485a 17be 9483 7bbd
000000d0: 9f25 36be 6256 73be 5488 093e 03e2 2e3e
000000e0: edfa bc3c 2d91 8cbd c0c4 003e d945 94bd
000000f0: 0bb1 55be 5e7d f2bc 35ba 99bc 51d3 10bd
00000100: 8765 99bd de54 0f3d b6b0 6abc 0a24 35bc
00000110: 93c1 a63d bbad 593e cc5a 52bd 76fd 3fbe
00000120: 366a a1bc 45b3 3a3d 797f ddbd e572 9fbd
00000130: f7c4 233c b5e6 303e fd58 21bd 296e 44be
00000140: 5ee5 1bbc 0f53 d9bd 7341 2abe 0f27 8b3d
00000150: efa9 ddbd 9ae8 ce3c 75b6 9b3d 434c 2fbe
00000160: 162b 8f3c a1e0 2ebc 14b5 3bbd b5e5 34be
00000170: 6ef6 b33d c93a 9b3d 25c4 053e b237 51bc
00000180: 2ce5 d83d 867c 2bbe f0ec 32be 678d 743d
00000190: 26d0 20be 041e 7bbe 974a f43d 9621 9b3d
000001a0: af33 43bd 2b42 8abd 3b0b 61be 5e6e 73bc
000001b0: bd77 8bbb 4460 38be 74c5 51be 45c4 683d
000001c0: df7f 943d 1eed c5bd 261c 89bc bcd1 e83d
000001d0: 25e1 b3bc 779f 2ebe e90c 28bd 22c0 62bd
000001e0: 5cbf 64be 21e6 d7bd efed 9c3d 0d17 c33d
000001f0: 45de 4bbe a637 883d 7120 473e fa66 a73d

fc.weight f4 [1, 32]
-0.051278476 0.029905397 0.07419182 0.101472646 -0.13073644 -0.02444416 0.07059888 -0.15376689
-0.021075845 -0.021231292 -0.012397298 0.121045865 -0.084112525 -0.015734611 0.060543135 0.08265959
0.022103641 0.07535644 -0.016404783 0.18249278 -0.064460784 -0.054735668 0.021133792 -0.23344105
-0.009662213 -0.06324739 -0.22498098 -0.02525263 -0.06376662 0.056763887 -0.24743398 0.11482091
00000000: 6109 52bd 2afc f43c e2f1 973d e4d0 cf3d
00000010: c6df 05be 1e3f c8bc 2596 903d 1175 1dbe
00000020: 40a7 acbc 3fed adbc 091e 4bbc e5e6 f73d
00000030: 3043 acbd dfe5 80bc 14fc 773d 6e49 a93d
00000040: b212 b53c 7a54 9a3d 5363 86bc 63df 3a3e
00000050: 0404 84bd 8232 60bd c620 ad3c 2c0b 6fbe
00000060: 424e 1ebc d987 81bd 6a61 66be 9ade cebc
00000070: 1398 82bd 4081 683d 555f 7dbe 3a27 eb3d
